yolov8/runs/detect/yolov8n_custom/weights/best.pt (torch, 836526 bytes, 297 tensors)

weight f2 [8, 3, 3, 3]
0	0xa521	-0.02003
1	0xae43	-0.09784
2	0xb49f	-0.2888
3	0xac58	-0.0679
4	0xb04b	-0.1342
5	0xb3b6	-0.241
6	0x34ba	0.2954
7	0x3207	0.1884
8	0xa6bb	-0.02629
9	0xae5e	-0.0995
10	0xb801	-0.5005
11	0xb5a8	-0.3535
12	0xb139	-0.1632
13	0xb740	-0.4531
14	0xb4f1	-0.3088
15	0xadc2	-0.08997
16	0xb6a7	-0.4158
17	0xb13d	-0.1637
18	0x3250	0.1973
19	0x3466	0.275
20	0x3573	0.3406
21	0x3a5e	0.796
22	0x3b31	0.899
23	0x3b69	0.9263
24	0x38fc	0.623
25	0x3a98	0.824
26	0x3be7	0.988
27	0xb811	-0.5083
28	0xb686	-0.4077
29	0xb40a	-0.2524
30	0xba66	-0.8
31	0xb7aa	-0.479
32	0xb6e0	-0.4297
33	0xbc51	-1.079
34	0xbaaf	-0.8354
35	0xb8ee	-0.616
36	0x38e7	0.613
37	0x3a98	0.824
38	0x3b8d	0.944
39	0x34ed	0.3079
40	0x3772	0.4653
41	0x38f5	0.6196
42	0x2f44	0.1135
43	0x3490	0.2852
44	0x382d	0.522
45	0x3103	0.1566
46	0x3467	0.2751
47	0x369d	0.4133
48	0xb4e4	-0.3057
49	0xb095	-0.1432
50	0x2dd6	0.0912
51	0xb514	-0.3174
52	0xb04b	-0.1342
53	0x2cc2	0.07434
54	0xb867	-0.5503
55	0xb929	-0.645
56	0xb75a	-0.4595
57	0xb91e	-0.6396
58	0xb666	-0.4
59	0xb6e0	-0.4297
60	0xb4a7	-0.2908
61	0xa25b	-0.01241
62	0xb53c	-0.3271
63	0x35e7	0.369
64	0x3636	0.3882
65	0x3749	0.4553
66	0x3812	0.509
67	0x389d	0.5767
68	0x3728	0.4473
69	0x357f	0.3435
70	0x35e4	0.3682
71	0x3202	0.1877
72	0x3efc	1.746
73	0x36a7	0.4158
74	0xbb12	-0.884
75	0x3ef7	1.741
76	0x356e	0.3394
77	0xbd57	-1.335
78	0x3813	0.5093
79	0xb736	-0.4507
80	0xbea9	-1.665
81	0x35f1	0.3713
82	0x37e3	0.493
83	0x3364	0.231
84	0x37b2	0.481
85	0x356b	0.3386
86	0x2858	0.03394
87	0x2ef6	0.10876
88	0xad47	-0.08246
89	0xb0fb	-0.1556
90	0x2d2e	0.08093
91	0xaf9e	-0.119
92	0xb01e	-0.1287
93	0xb665	-0.3997
94	0xbb9b	-0.9507
95	0xbc93	-1.144
96	0xb80b	-0.5054
97	0xbc92	-1.143
98	0xbd37	-1.304
99	0xb5a1	-0.3518
100	0x29ed	0.0463
101	0x3010	0.127
102	0x111b	0.000623
103	0x3624	0.3838
104	0x34af	0.2927
105	0x3133	0.1625
106	0x3733	0.45
107	0x3767	0.4626
108	0x2c4d	0.0672
109	0x3656	0.396
110	0x2d90	0.0869
111	0x38bd	0.5923
112	0x38ab	0.5835
113	0x34a5	0.2903
114	0x374a	0.4556
115	0x3559	0.3342
116	0xad84	-0.0862
117	0x9333	-0.000879
118	0x35b0	0.3555
119	0x2da9	0.08844
120	0x3c2c	1.043
121	0x3c35	1.052
122	0x35c4	0.3604
123	0x3ded	1.481
124	0x3d02	1.252
125	0x36cd	0.425
126	0xbae3	-0.861
127	0xbbea	-0.9893
128	0xbac2	-0.8447
129	0xb58e	-0.3472
130	0xba2c	-0.7715
131	0xbaf5	-0.8696
132	0x34a5	0.2903
133	0xb440	-0.2656
134	0xb82c	-0.5215
135	0x395f	0.6714
136	0x3918	0.6367
137	0x3ae1	0.86
138	0x3ba3	0.9546
139	0x3c4c	1.074
140	0x3cf1	1.235
141	0x3c49	1.071
142	0x3aba	0.841
143	0x3bbc	0.967
144	0xbb85	-0.94
145	0xbc4f	-1.077
146	0xba2d	-0.772
147	0xbc57	-1.085
148	0xbb8f	-0.945
149	0xb9f9	-0.7466
150	0xb44f	-0.2693
151	0xb344	-0.227
152	0x2eb5	0.1048
153	0x3893	0.572
154	0x3466	0.275
155	0xb4ec	-0.3076
156	0x26e0	0.02686
157	0xb08a	-0.1418
158	0xb8fd	-0.6235
159	0xb45e	-0.273
160	0xb7a5	-0.4778
161	0xbc14	-1.02
162	0xb21d	-0.191
163	0xb2ef	-0.2167
164	0xaf86	-0.11755
165	0xb21e	-0.1912
166	0xb40e	-0.2534
167	0xb0eb	-0.1537
168	0xb546	-0.3296
169	0xb408	-0.252
170	0xade4	-0.09204
171	0xa79d	-0.02974
172	0x2d97	0.08734
173	0x0fd4	0.0004778
174	0x29bd	0.04483
175	0x313a	0.1633
176	0x26aa	0.02603
177	0x2e1b	0.0954
178	0x31d2	0.1819
179	0xa911	-0.03958
180	0xb41e	-0.2573
181	0xb3c2	-0.2424
182	0xb08c	-0.1421
183	0xb136	-0.1628
184	0xaf9e	-0.119
185	0xb015	-0.1276
186	0xb194	-0.1743
187	0xb078	-0.1396
188	0xb2c3	-0.2113
189	0xb0ec	-0.1538
190	0x38a9	0.5825
191	0x3c74	1.113
192	0xb959	-0.6685
193	0x30c6	0.1492
194	0x3a0a	0.755
195	0xbcf4	-1.238
196	0xb860	-0.547
197	0x31b8	0.1787
198	0xb46b	-0.2761
199	0x386a	0.552
200	0x3d3d	1.31
201	0xb823	-0.517
202	0x3432	0.2622
203	0x3cca	1.197
204	0xbb12	-0.884
205	0x2d8d	0.08673
206	0x393f	0.656
207	0xb007	-0.1259
208	0x98cc	-0.002342
209	0x38ec	0.615
210	0xb8c7	-0.597
211	0xb4ca	-0.2993
212	0x372c	0.4482
213	0xbbb1	-0.9614
214	0xb7ca	-0.4868
215	0x2efd	0.1092

weight f2 [8]
0	0x3af1	0.8677
1	0x40fb	2.49
2	0x3e4a	1.572
3	0x3ba3	0.9546
4	0x3c80	1.125
5	0x3cf6	1.24
6	0x3f6b	1.8545
7	0x3a49	0.7856

bias f2 [8]
0	0x3e1c	1.527
1	0xbaa0	-0.828
2	0xb18a	-0.1731
3	0x3c31	1.048
4	0x3aa2	0.829
5	0x3fa9	1.915
6	0xc0a7	-2.326
7	0x36ff	0.4373

running_mean f2 [8]
0	0x3b4d	0.9126
1	0xb840	-0.5312
2	0xae72	-0.1007
3	0xba6f	-0.804
4	0x3ecb	1.698
5	0x3964	0.674
6	0xbc92	-1.143
7	0x3860	0.547

running_var f2 [8]
0	0x3916	0.6357
1	0x3767	0.4626
2	0x34be	0.2964
3	0x35c2	0.3599
4	0x3d0a	1.26
5	0x3d14	1.27
6	0x35a7	0.3533
7	0x3457	0.2712

weight f2 [8, 8, 3, 3]
0	0xb6bf	-0.4216
1	0x2a23	0.04794
2	0x38a8	0.582
3	0xbae2	-0.8604
4	0xa294	-0.01285
5	0x37c3	0.485
6	0xb52a	-0.3228
7	0x3343	0.2269
8	0x3608	0.377
9	0x31ea	0.1848
10	0x2fa5	0.11945
11	0xb551	-0.3323
12	0x3484	0.2822
13	0xac07	-0.0629
14	0xb852	-0.54
15	0x366d	0.4016
16	0x2d2c	0.0808
17	0xb3c9	-0.2433
18	0xa04b	-0.008385
19	0xacb1	-0.0733
20	0xb5bc	-0.3584
21	0x9e4e	-0.006157
22	0xb515	-0.3176
23	0xb894	-0.5723
24	0xb044	-0.1333
25	0xb4bb	-0.2957
26	0xb6c0	-0.4219
27	0x2c4c	0.06714
28	0x3440	0.2656
29	0x2ac5	0.0529
30	0x33e3	0.2465
31	0x3227	0.1923
32	0xb5c0	-0.3594
33	0x346b	0.2761
34	0x2d35	0.08136
35	0xb4fd	-0.3118
36	0xa898	-0.0359
37	0xac71	-0.0694
38	0x1e2e	0.006035
39	0xbc1d	-1.028
40	0xb762	-0.4614
41	0x36f4	0.4346
42	0xbbac	-0.959
43	0xac85	-0.0706
44	0x3b26	0.8936
45	0xb8db	-0.607
46	0xad95	-0.0872
47	0x39fd	0.7485
48	0xbc25	-1.036
49	0xb204	-0.188
50	0x3ce0	1.219
51	0xb376	-0.2332
52	0x3652	0.395
53	0x39b8	0.715
54	0x354e	0.3315
55	0x3163	0.1683
56	0xb389	-0.2355
57	0x38dd	0.608
58	0x3428	0.2598
59	0xb3c7	-0.243
60	0x36f7	0.4353
61	0x2d26	0.08044
62	0xb2d1	-0.213
63	0x2e41	0.0977
64	0x3802	0.501
65	0x36ad	0.4172
66	0xa076	-0.00871
67	0x3644	0.3916
68	0x330d	0.2203
69	0xb793	-0.4734
70	0x3592	0.3481
71	0x381d	0.514
72	0xb019	-0.128
73	0xafb2	-0.12024
74	0xb146	-0.1648
75	0xb598	-0.3496
76	0x9f3e	-0.007072
77	0x3755	0.4583
78	0xbb4c	-0.912
79	0xb451	-0.2698
80	0x3a55	0.7915
81	0x3619	0.381
82	0x343d	0.265
83	0xacd1	-0.07526
84	0x2c1c	0.0642
85	0x309a	0.1438
86	0xb3ce	-0.2439
87	0xaf0f	-0.1103
88	0x8c05	-0.0002453
89	0xb345	-0.2272
90	0xaf1f	-0.11127
91	0xafe8	-0.12354
92	0xb52a	-0.3228
93	0xb1fb	-0.1869
94	0xa9ea	-0.0462
95	0x1d91	0.005436
96	0x2e1b	0.0954
97	0x30eb	0.1537
98	0x26a9	0.02602
99	0x3abf	0.8433
100	0xae87	-0.102
101	0xba6e	-0.8037
102	0x3d26	1.287
103	0xad86	-0.0863
104	0xbcda	-1.213
105	0x3449	0.2678
106	0xadee	-0.09265
107	0xb5b2	-0.356
108	0xac97	-0.0717
109	0x30c2	0.1487
110	0x38f1	0.6177
111	0xb061	-0.1368
112	0xace4	-0.0764
113	0x38ee	0.616
114	0x374b	0.4558
115	0x306d	0.1383
116	0xb4d0	-0.3008
117	0x3a06	0.753
118	0xb4d9	-0.303
119	0xba67	-0.8003
120	0x3e47	1.569
121	0x30d8	0.1514
122	0xbec7	-1.694
123	0x3b9c	0.951
124	0x3926	0.6436
125	0xb8c3	-0.595
126	0x365d	0.3977
127	0x2923	0.04013
128	0xb61a	-0.3813
129	0x331c	0.2222
130	0xafeb	-0.1237
131	0xb83e	-0.5303
132	0xade7	-0.0922
133	0xb4d3	-0.3015
134	0xb95b	-0.6694
135	0xb367	-0.2313
136	0xb547	-0.3298
137	0xb5df	-0.367
138	0xb5a2	-0.352
139	0xb225	-0.192
140	0xac31	-0.0655
141	0x3440	0.2656
142	0x2c03	0.0627
143	0x33db	0.2455
144	0xa74d	-0.02852
145	0xb736	-0.4507
146	0xb951	-0.6646
147	0x34d5	0.302
148	0xaf96	-0.1185
149	0xb6c8	-0.4238
150	0x371f	0.445
151	0x30a4	0.145
152	0xb1e9	-0.1847
153	0x301a	0.1282
154	0x2f9b	0.11884
155	0x294b	0.04135
156	0x35b2	0.356
157	0x35fb	0.3738
158	0x3208	0.1885
159	0x3435	0.263
160	0x37af	0.4802
161	0x3359	0.2296
162	0xa8e1	-0.03812
163	0x2e6e	0.10046
164	0xa15f	-0.01049
165	0xada2	-0.088
166	0xae59	-0.0992
167	0xb5a5	-0.3528
168	0x1e03	0.00587
169	0xa9fb	-0.04672
170	0xb469	-0.2756
171	0x369f	0.4138
172	0x3a1e	0.7646
173	0x3477	0.279
174	0x2ef9	0.10895
175	0x3a22	0.7666
176	0x3499	0.2874
177	0xaf67	-0.11566
178	0x364e	0.394
179	0x3553	0.3328
180	0x35a4	0.3525
181	0x3412	0.2544
182	0x3416	0.2554
183	0x3920	0.6406
184	0x3529	0.3225
185	0x3035	0.1315
186	0x38d4	0.6035
187	0x384a	0.536
188	0x30b5	0.1471
189	0x3844	0.533
190	0x3a15	0.7603
191	0x386e	0.5537
192	0x388d	0.569
193	0x3a46	0.784
194	0x3aff	0.8745
195	0xb070	-0.1387
196	0x269d	0.02583
197	0x33dd	0.2457
198	0x31a2	0.176
199	0x30db	0.1517
200	0x3028	0.1299
201	0xae49	-0.0982
202	0xa9e5	-0.04605
203	0x2713	0.02763
204	0xb13d	-0.1637
205	0xb2bd	-0.2106
206	0xb1ec	-0.185
207	0x2a95	0.05142
208	0x36ca	0.4243
209	0x379e	0.476
210	0xaeee	-0.1083
211	0x306c	0.1382
212	0x2e44	0.0979
213	0xb0a9	-0.1456
214	0xb416	-0.2554
215	0xb009	-0.1261
216	0x3823	0.517
217	0x38af	0.5854
218	0x39ed	0.7407
219	0x332e	0.2244
220	0x3503	0.3132
221	0x37fd	0.4993
222	0xa9d3	-0.0455
223	0xab57	-0.05734
224	0x3256	0.198
225	0xb5df	-0.367
226	0x280e	0.03168
227	0x2da1	0.08795
228	0xb8f7	-0.6206
229	0x35b3	0.3562
230	0x359b	0.3503
231	0xb876	-0.5576
232	0x2fc7	0.1215
233	0xaed3	-0.1066
234	0xabbb	-0.0604
235	0x34cb	0.2996
236	0x35b3	0.3562
237	0xb4e2	-0.3052
238	0x34b8	0.295
239	0x3863	0.5483
240	0xa53f	-0.0205
241	0x32f7	0.2177
242	0x3424	0.2588
243	0x2e6f	0.1005
244	0x30d9	0.1515
245	0x3835	0.526
246	0x3098	0.1436
247	0xae49	-0.0982
248	0x3192	0.1741
249	0x334a	0.2278
250	0xb0b4	-0.147
251	0xb087	-0.1415
252	0xb7e4	-0.4932
253	0xb64a	-0.393
254	0xb829	-0.52
255	0xb5a5	-0.3528

weight f2 [8]
0	0x3b3f	0.906
1	0x3abf	0.8433
2	0x3d18	1.273
3	0x3e8a	1.635
4	0x3e64	1.598
5	0x3ace	0.8506
6	0x3e4d	1.575
7	0x3b22	0.8916

bias f2 [8]
0	0x3d5a	1.338
1	0x3904	0.627
2	0x3c2b	1.042
3	0x329a	0.2063
4	0x3461	0.2737
5	0x3455	0.2708
6	0x3883	0.564
7	0x25fd	0.02339

running_mean f2 [8]
0	0x3d6a	1.354
1	0x3915	0.6353
2	0x49b9	11.445
3	0x3ffe	1.998
4	0xc6c5	-6.77
5	0xc062	-2.191
6	0x36b1	0.4182
7	0x4120	2.562

running_var f2 [8]
0	0x4779	7.473
1	0x4694	6.58
2	0x549f	73.94
3	0x4db6	22.84
4	0x4e9d	26.45
5	0x4711	7.066
6	0x50ef	39.47
7	0x4ad8	13.69

weight f2 [8, 8, 1, 1]
0	0x39f0	0.742
1	0x37f8	0.498
2	0x2ad9	0.0535
3	0xb869	-0.5513
4	0xb889	-0.567
5	0x341f	0.2576
6	0xbc44	-1.066
7	0xb694	-0.4111
8	0x298d	0.04337
9	0xb863	-0.5483
10	0x4096	2.293
11	0x3b8a	0.9424
12	0xb8f0	-0.617
13	0x368f	0.41
14	0x3401	0.2502
15	0x354c	0.331
16	0xb872	-0.5557
17	0xb8a7	-0.5815
18	0x31a2	0.176
19	0xb20e	-0.1892
20	0xb0f0	-0.1543
21	0x3a42	0.782
22	0xbc09	-1.009
23	0x3bfa	0.997
24	0xb7f4	-0.497
25	0x3e37	1.554
26	0x3055	0.1354
27	0xb5aa	-0.354
28	0xad93	-0.0871
29	0xbb88	-0.9414
30	0x3471	0.2776
31	0x3913	0.6343
32	0x3972	0.6807
33	0xb25a	-0.1985
34	0xb892	-0.5713
35	0xbd85	-1.38
36	0x28d5	0.03775
37	0xb329	-0.2238
38	0x3ef9	1.743
39	0x3a6a	0.802
40	0x385c	0.545
41	0xba64	-0.799
42	0xb83b	-0.529
43	0x2ac3	0.05283
44	0xb05c	-0.1362
45	0xb686	-0.4077
46	0xb9a1	-0.7036
47	0x3ca0	1.156
48	0xbdd9	-1.462
49	0xba03	-0.7515
50	0x3a99	0.8247
51	0xb5be	-0.359
52	0xba35	-0.776
53	0x3ceb	1.2295
54	0xb091	-0.1427
55	0x3d28	1.289
56	0xb9b5	-0.7134
57	0x3943	0.6577
58	0x3c0c	1.012
59	0x3c5c	1.09
60	0xbd53	-1.331
61	0xbc56	-1.084
62	0x36ed	0.4329
63	0xbb30	-0.8984

weight f2 [8]
0	0x3d2d	1.294
1	0x401b	2.053
2	0x40b5	2.354
3	0x3d39	1.306
4	0x3b72	0.9307
5	0x3f14	1.77
6	0x3a00	0.75
7	0x3c55	1.083

bias f2 [8]
0	0x3b3e	0.9053
1	0x3e41	1.563
2	0xba69	-0.8013
3	0x3af7	0.8706
4	0x3e25	1.536
5	0xa535	-0.02034
6	0x3e41	1.563
7	0x368d	0.4094

running_mean f2 [8]
0	0xae95	-0.10284
1	0x407a	2.238
2	0xbcb5	-1.177
3	0x3101	0.1564
4	0x3979	0.684
5	0xb921	-0.641
6	0xbdb5	-1.427
7	0x251d	0.01997

running_var f2 [8]
0	0x3eba	1.682
1	0x48d9	9.695
2	0x411e	2.559
3	0x4046	2.137
4	0x45b4	5.703
5	0x4515	5.082
6	0x4427	4.152
7	0x4488	4.53

weight f2 [8, 12, 1, 1]
0	0xb83d	-0.53
1	0xbabb	-0.8413
2	0x3800	0.5
3	0x392a	0.6455
4	0x3c85	1.13
5	0x3712	0.442
6	0xafe6	-0.1234
7	0xa953	-0.0416
8	0x365f	0.3982
9	0xb5f5	-0.3723
10	0xb999	-0.6997
11	0xb478	-0.2793
12	0xa0c2	-0.00929
13	0x38e3	0.611
14	0x367b	0.405
15	0xb986	-0.6904
16	0xb824	-0.5176
17	0x393c	0.6543
18	0xb07e	-0.1404
19	0x37b6	0.482
20	0x324d	0.1969
21	0x3469	0.2756
22	0xb96a	-0.677
23	0xb904	-0.627
24	0x3589	0.346
25	0xba24	-0.7676
26	0xb405	-0.2512
27	0x3e3c	1.559
28	0xb366	-0.2312
29	0xb748	-0.455
30	0xad43	-0.0822
31	0x325e	0.199
32	0x1e76	0.00631
33	0x3d6a	1.354
34	0xbac8	-0.8477
35	0x3ced	1.231
36	0x3432	0.2622
37	0x40ec	2.46
38	0xb8cc	-0.5996
39	0x35f0	0.371
40	0x363b	0.3894
41	0xadc2	-0.08997
42	0x3154	0.1665
43	0x3824	0.5176
44	0x2dd4	0.09106
45	0xb68c	-0.4092
46	0xb6c5	-0.423
47	0x32fa	0.218
48	0x37f8	0.498
49	0xb685	-0.4075
50	0xb86f	-0.554
51	0x30c9	0.1495
52	0x397a	0.6846
53	0x348f	0.285
54	0x3792	0.4731
55	0xb9b1	-0.7114
56	0x3e3e	1.561
57	0xb57a	-0.3423
58	0x3d79	1.368
59	0x3bb9	0.9653
60	0xbcbb	-1.183
61	0xbd4d	-1.325
62	0x302e	0.1306
63	0x3612	0.3794
64	0xa5b5	-0.0223
65	0x300b	0.1263
66	0xb62b	-0.3855
67	0xb40b	-0.2527
68	0xb795	-0.4739
69	0x3080	0.1406
70	0x3c30	1.047
71	0xb694	-0.4111
72	0xb50d	-0.3157
73	0x3bb7	0.9644
74	0x3cbb	1.183
75	0xbc99	-1.149
76	0xb88b	-0.568
77	0x2e7c	0.1013
78	0x3d31	1.298
79	0x305e	0.1365
80	0xaca0	-0.07227
81	0x3738	0.4512
82	0x3834	0.5254
83	0xbe78	-1.617
84	0xb5cd	-0.3625
85	0xb87a	-0.5596
86	0xb97e	-0.6865
87	0xb610	-0.379
88	0x3927	0.644
89	0xb667	-0.4001
90	0xb699	-0.4124
91	0x3271	0.2013
92	0x3a0b	0.7554
93	0x38ad	0.5845
94	0xba18	-0.7617
95	0xb5e4	-0.3682

weight f2 [8]
0	0x3d2b	1.292
1	0x3e38	1.555
2	0x3de4	1.473
3	0x4018	2.047
4	0x3df7	1.491
5	0x3e2c	1.543
6	0x3e40	1.5625
7	0x3f9e	1.904

bias f2 [8]
0	0x39e4	0.7363
1	0x3584	0.3447
2	0xb856	-0.542
3	0x3dda	1.463
4	0x3c97	1.147
5	0x398e	0.6943
6	0xb2ca	-0.2122
7	0xb473	-0.278

running_mean f2 [8]
0	0xbeaa	-1.666
1	0xc0ae	-2.34
2	0x42c4	3.383
3	0x440b	4.043
4	0x488b	9.086
5	0xc1a7	-2.826
6	0xbccb	-1.198
7	0xbeb5	-1.677

running_var f2 [8]
0	0x4522	5.133
1	0x4442	4.258
2	0x4b98	15.19
3	0x50df	38.97
4	0x4f07	28.11
5	0x49dd	11.73
6	0x4bf5	15.914
7	0x469e	6.617

weight f2 [4, 4, 3, 3]
0	0xb59c	-0.3506
1	0xb75e	-0.4604
2	0x36c2	0.4224
3	0x3786	0.4702
4	0xb6e2	-0.4302
5	0xb8e9	-0.614
6	0x3016	0.1277
7	0x3574	0.3408
8	0x306e	0.1384
9	0xb133	-0.1625
10	0x319e	0.1755
11	0x2ede	0.1073
12	0x256a	0.02115
13	0x336d	0.232
14	0x349a	0.2876
15	0xb4ab	-0.2917
16	0x2c43	0.0666
17	0x320f	0.1893
18	0x3674	0.4033
19	0x2c72	0.06946
20	0x30df	0.1522
21	0xb2d1	-0.213
22	0x2f5e	0.1151
23	0xabdb	-0.06137
24	0xb092	-0.1428
25	0xada6	-0.08826
26	0x3076	0.1394
27	0x331c	0.2222
28	0x2dd4	0.09106
29	0x29a5	0.0441
30	0xaa91	-0.0513
31	0xb944	-0.658
32	0xbab4	-0.838
33	0x35a2	0.352
34	0xb8e0	-0.6094
35	0xb961	-0.6724
36	0xb283	-0.2035
37	0xb6b8	-0.42
38	0xaf5d	-0.11505
39	0x39ee	0.741
40	0x3471	0.2776
41	0xb8ae	-0.585
42	0x318d	0.1735
43	0x3086	0.1414
44	0xb20a	-0.1887
45	0xb660	-0.3984
46	0xb749	-0.4553
47	0x38a8	0.582
48	0x36be	0.4214
49	0xbc04	-1.004
50	0xab05	-0.05484
51	0xaa0e	-0.0473
52	0x350d	0.3157
53	0x34d4	0.3018
54	0x34a4	0.29
55	0xbb89	-0.942
56	0xb8ae	-0.585
57	0x3cb0	1.172
58	0x3a52	0.79
59	0x2565	0.02107
60	0xa9a9	-0.04422
61	0x395f	0.6714
62	0x2bd4	0.06116
63	0x3825	0.518
64	0x33e6	0.2468
65	0xb391	-0.2365
66	0xb8e1	-0.61
67	0x3e5e	1.592
68	0xb284	-0.2036
69	0x36e5	0.431
70	0xbd7a	-1.369
71	0xb224	-0.1919
72	0xb703	-0.4382
73	0xb997	-0.6987
74	0xa8f7	-0.0388
75	0x3768	0.463
76	0x384d	0.5376
77	0x9e1c	-0.005966
78	0x394a	0.661
79	0x3c54	1.082
80	0xbdf6	-1.49
81	0xb415	-0.2551
82	0x3555	0.3333
83	0xb350	-0.2285
84	0x3ab4	0.838
85	0xb4ee	-0.308
86	0xb7c0	-0.4844
87	0x2845	0.03336
88	0xb8bd	-0.5923
89	0x3574	0.3408
90	0x317d	0.1715
91	0x2f0a	0.11
92	0x351f	0.32
93	0xb246	-0.196
94	0x3cc0	1.1875
95	0x364b	0.3933
96	0xb6d5	-0.427
97	0xb394	-0.2368
98	0xb98b	-0.693
99	0x3703	0.4382
100	0xb89b	-0.5757
101	0xaf8f	-0.1181
102	0xbe88	-1.633
103	0xb65c	-0.3975
104	0x3c18	1.023
105	0x37bd	0.4836
106	0x3c99	1.149
107	0xb6dc	-0.4287
108	0xb705	-0.4387
109	0xb4b4	-0.294
110	0x340d	0.2532
111	0x9a3f	-0.00305
112	0x2f1a	0.11096
113	0xb965	-0.6743
114	0x38dc	0.6074
115	0x3cfa	1.244
116	0xae9b	-0.1032
117	0x306a	0.138
118	0x36df	0.4294
119	0x3491	0.2854
120	0x3620	0.3828
121	0xb4b4	-0.294
122	0x3b75	0.932
123	0xb4f9	-0.3108
124	0xb812	-0.509
125	0xb419	-0.256
126	0x3001	0.1251
127	0xb8fa	-0.622
128	0xadea	-0.0924
129	0xbca7	-1.163
130	0xbc44	-1.066
131	0x34a1	0.2893
132	0xa9bc	-0.0448
133	0x39fb	0.7476
134	0x390b	0.6304
135	0x2ad9	0.0535
136	0xbaa0	-0.828
137	0x31f3	0.1859
138	0x3460	0.2734
139	0x3ab3	0.8374
140	0xb698	-0.412
141	0x31d2	0.1819
142	0x3553	0.3328
143	0x287b	0.035

weight f2 [4]
0	0x3d25	1.286
1	0x3c65	1.099
2	0x3c9b	1.151
3	0x3c65	1.099

bias f2 [4]
0	0x3b11	0.8833
1	0x3eda	1.713
2	0x409e	2.309
3	0x3e6d	1.606

running_mean f2 [4]
0	0xb960	-0.672
1	0x3e86	1.631
2	0x3b0c	0.881
3	0xb067	-0.1376

running_var f2 [4]
0	0x44ed	4.926
1	0x4179	2.736
2	0x3fcd	1.95
3	0x414f	2.654

weight f2 [4, 4, 3, 3]
0	0x3607	0.3767
1	0xb6e6	-0.4312
2	0xad5d	-0.0838
3	0x38ea	0.6143
4	0xb731	-0.4495
5	0xb5b1	-0.3557
6	0x34ef	0.3083
7	0xb054	-0.1353
8	0xb002	-0.1252
9	0xb446	-0.267
10	0xb0a1	-0.1447
11	0xacc0	-0.0742
12	0xb9b1	-0.7114
13	0xb1dd	-0.1832
14	0x3a80	0.8125
15	0xb0a9	-0.1456
16	0x3155	0.1666
17	0xb53d	-0.3274
18	0xb4c5	-0.298
19	0xb62f	-0.3865
20	0x3782	0.4692
21	0xb7e8	-0.4941
22	0xb5ac	-0.3545
23	0x3a90	0.8203
24	0x2e43	0.09784
25	0xb0c4	-0.1489
26	0xb6db	-0.4285
27	0xba57	-0.7925
28	0xafc1	-0.12115
29	0x3821	0.516
30	0xb406	-0.2515
31	0x3511	0.3167
32	0x3b0d	0.8813
33	0x33a8	0.2393
34	0xadb7	-0.0893
35	0xb9ea	-0.7393
36	0xa544	-0.02057
37	0xad31	-0.0811
38	0x3149	0.1652
39	0xb2a6	-0.2078
40	0xb4b3	-0.2937
41	0x2f4e	0.11414
42	0x3049	0.1339
43	0xb6be	-0.4214
44	0xa854	-0.0338
45	0x33fc	0.2495
46	0xb76d	-0.464
47	0xb7d5	-0.4895
48	0x35c2	0.3599
49	0x3884	0.5645
50	0xb7c2	-0.4849
51	0xaf6e	-0.1161
52	0x3827	0.519
53	0x21c6	0.01128
54	0x3436	0.2632
55	0x2e13	0.0949
56	0xb4e4	-0.3057
57	0x373a	0.4517
58	0x2e23	0.0959
59	0xbcb6	-1.178
60	0x3166	0.1687
61	0x342d	0.261
62	0xb43f	-0.2654
63	0xabde	-0.06146
64	0xbaa5	-0.8306
65	0xb738	-0.4512
66	0x2e4e	0.0985
67	0xb452	-0.27
68	0xb124	-0.1606
69	0xaebe	-0.10535
70	0x31d3	0.182
71	0x3c1e	1.029
72	0xaffd	-0.1248
73	0xb8e3	-0.611
74	0xba20	-0.7656
75	0x386d	0.553
76	0xb809	-0.5044
77	0xb966	-0.675
78	0x32d5	0.2135
79	0x32a0	0.207
80	0xb423	-0.2585
81	0xaed5	-0.10675
82	0x38e7	0.613
83	0x3aa3	0.8296
84	0xb865	-0.5493
85	0xb8f6	-0.62
86	0x3ba7	0.9565
87	0xb1b1	-0.1779
88	0xb925	-0.643
89	0xb858	-0.543
90	0xaddc	-0.09155
91	0xbc48	-1.07
92	0xb703	-0.4382
93	0xb440	-0.2656
94	0x3c2f	1.046
95	0x3e45	1.567
96	0x2431	0.01637
97	0x3504	0.3135
98	0xacbf	-0.07416
99	0x2dda	0.09143
100	0x3469	0.2756
101	0x2fad	0.11993
102	0x3bd0	0.9766
103	0x34eb	0.3074
104	0x3319	0.2218
105	0xb04a	-0.134
106	0xb88d	-0.569
107	0xbaa7	-0.8315
108	0xb14e	-0.1658
109	0xb44e	-0.269
110	0x3524	0.3213
111	0xac8e	-0.07117
112	0xb127	-0.161
113	0x3415	0.2551
114	0xb345	-0.2272
115	0xb48a	-0.2837
116	0x343a	0.2642
117	0xa815	-0.0319
118	0xbdd3	-1.456
119	0x39e3	0.736
120	0xb059	-0.1359
121	0x3dd8	1.461
122	0xb42c	-0.2607
123	0xbb76	-0.9326
124	0x37d3	0.489
125	0x35ad	0.3547
126	0xb841	-0.5317
127	0x39ff	0.7495
128	0x364d	0.3938
129	0x3867	0.5503
130	0x3980	0.6875
131	0xb528	-0.3223
132	0xada6	-0.08826
133	0xb936	-0.6514
134	0x2ddb	0.0915
135	0x2be6	0.0617
136	0x37dd	0.4915
137	0x3055	0.1354
138	0xbb28	-0.8945
139	0x3d5b	1.339
140	0x3497	0.2869
141	0xb734	-0.4502
142	0xbaf4	-0.869
143	0xb32d	-0.2242

weight f2 [4]
0	0x3d6a	1.354
1	0x3f9f	1.905
2	0x3f75	1.864
3	0x3d55	1.333

bias f2 [4]
0	0x3860	0.547
1	0x3c03	1.003
2	0x390a	0.63
3	0x40e0	2.438

running_mean f2 [4]
0	0xc21e	-3.059
1	0xc074	-2.227
2	0x3952	0.665
3	0x3ef7	1.741

running_var f2 [4]
0	0x469f	6.62
1	0x48d6	9.67
2	0x4af2	13.89
3	0x4862	8.766

weight f2 [16, 8, 3, 3]
0	0xb5ab	-0.3542
1	0xb071	-0.1388
2	0x2e41	0.0977
3	0x304a	0.134
4	0x37c2	0.4849
5	0x36eb	0.4324
6	0x3491	0.2854
7	0x396d	0.678
8	0x38a3	0.5796
9	0x33b5	0.2408
10	0x304f	0.1346
11	0xb1f3	-0.1859
12	0x3424	0.2588
13	0x2aa1	0.0518
14	0xb5d0	-0.3633
15	0x35a4	0.3525
16	0x32bc	0.2104
17	0xb4c2	-0.2974
18	0x31b2	0.178
19	0x2c54	0.0676
20	0xadeb	-0.09247
21	0x3655	0.3958
22	0x3818	0.5117
23	0x3144	0.1646
24	0x3394	0.2368
25	0x33fb	0.2494
26	0x2b2d	0.05606
27	0x36a9	0.4163
28	0x3130	0.1621
29	0xb1a6	-0.1765
30	0x3897	0.5737
31	0x2a1d	0.04776
32	0xb9b6	-0.714
33	0x37e5	0.4934
34	0xb41b	-0.2566
35	0xbd25	-1.286
36	0x347a	0.2798
37	0x3809	0.5044
38	0xae5d	-0.0994
39	0x3b1e	0.8896
40	0x3dcc	1.449
41	0x3067	0.1376
42	0x3c70	1.109
43	0x3cf8	1.242
44	0x9aef	-0.003386
45	0xb331	-0.2247
46	0xaf1f	-0.11127
47	0x2e0a	0.09436
48	0xb2dc	-0.2144
49	0x267e	0.02536
50	0x3541	0.3284
51	0x2ca9	0.0728
52	0x3295	0.2057
53	0x368d	0.4094
54	0xb1e8	-0.1846
55	0xb0dc	-0.1519
56	0x29e3	0.046
57	0xb340	-0.2266
58	0x9fa8	-0.007477
59	0x304f	0.1346
60	0xae78	-0.1011
61	0x3093	0.143
62	0x31da	0.1829
63	0xb02a	-0.1301
64	0xaf01	-0.10944
65	0xa7d9	-0.03065
66	0xab9b	-0.05942
67	0x2d2a	0.0807
68	0xaf23	-0.1115
69	0xade8	-0.0923
70	0x3221	0.1915
71	0xaeff	-0.1093
72	0xabe8	-0.06177
73	0x2aa9	0.05203
74	0x2bd8	0.06128
75	0x211e	0.009995
76	0x2279	0.01264
77	0x0c3d	0.0002587
78	0x31c2	0.1799
79	0x2e2d	0.0965
80	0x296d	0.0424
81	0xb363	-0.2308
82	0xab97	-0.0593
83	0x3132	0.1624
84	0xab29	-0.05594
85	0x3061	0.1368
86	0x327a	0.2024
87	0xb4c8	-0.2988
88	0x253e	0.02048
89	0x2f76	0.1166
90	0xb86e	-0.5537
91	0xbad3	-0.853
92	0xb497	-0.2869
93	0xb9fa	-0.747
94	0xbcda	-1.213
95	0xb965	-0.6743
96	0xb7c0	-0.4844
97	0xbb66	-0.925
98	0xb867	-0.5503
99	0x2e29	0.09625
100	0x2f1f	0.11127
101	0xb312	-0.221
102	0x36cf	0.4255
103	0x30bf	0.1483
104	0xb499	-0.2874
105	0x38a5	0.5806
106	0x3576	0.3413
107	0xacc0	-0.0742
108	0xb0ab	-0.1459
109	0x2f79	0.11676
110	0x2d4e	0.0829
111	0x2a33	0.04843
112	0x9a69	-0.00313
113	0x28b8	0.03687
114	0x31bb	0.1791
115	0x2fcd	0.1219
116	0x32ba	0.2102
117	0x3498	0.287
118	0x32c4	0.2114
119	0x2fab	0.1198
120	0x32c6	0.2117
121	0x32e1	0.215
122	0x3140	0.1641
123	0x35cb	0.362
124	0x3396	0.237
125	0x3411	0.2542
126	0xb8dd	-0.608
127	0xbc2a	-1.041
128	0xba30	-0.7734
129	0xba1d	-0.764
130	0xbd4c	-1.324
131	0xbb60	-0.922
132	0xb650	-0.3945
133	0xbb05	-0.8774
134	0xb99f	-0.7026
135	0xb02f	-0.1307
136	0xb0a5	-0.1451
137	0xaf25	-0.11163
138	0x25dc	0.02289
139	0xa418	-0.01599
140	0x22ff	0.013664
141	0xa42d	-0.01631
142	0x2cef	0.0771
143	0x2df2	0.0929
144	0x3231	0.1935
145	0x27ed	0.03096
146	0xb0af	-0.1464
147	0xa946	-0.0412
148	0xb4ef	-0.3083
149	0xb06e	-0.1384
150	0x357b	0.3425
151	0x37cc	0.4873
152	0x35db	0.366
153	0x3332	0.2249
154	0x3572	0.3403
155	0x3577	0.3416
156	0x1bf7	0.00389
157	0xaf13	-0.11053
158	0x31f8	0.1865
159	0xb5d4	-0.3643
160	0xb4a3	-0.2898
161	0x2b45	0.0568
162	0xb4d3	-0.3015
163	0xad82	-0.08606
164	0xa1c9	-0.0113
165	0xaf05	-0.1097
166	0xb159	-0.1671
167	0xaf2e	-0.1122
168	0xb131	-0.1622
169	0xb57e	-0.3433
170	0xb26d	-0.2008
171	0x3346	0.2273
172	0x372f	0.449
173	0x3698	0.412
174	0x34f4	0.3096
175	0x35d6	0.3647
176	0x3345	0.2272
177	0xb103	-0.1566
178	0xb922	-0.6416
179	0xbb76	-0.9326
180	0xba42	-0.782
181	0xb98e	-0.6943
182	0xb498	-0.287
183	0xac70	-0.06934
184	0x1c83	0.004406
185	0x32af	0.2089
186	0x3949	0.6606
187	0x34c8	0.2988
188	0x31a8	0.1768
189	0xb21c	-0.1909
190	0xb89e	-0.577
191	0xb634	-0.3877
192	0x285e	0.03412
193	0x2902	0.03912
194	0xa545	-0.02058
195	0x38a7	0.5815
196	0x3378	0.2334
197	0x342e	0.2612
198	0xac04	-0.06274
199	0x2aa5	0.0519
200	0x2e70	0.1006
201	0x281f	0.0322
202	0x2896	0.03583
203	0x29da	0.04572
204	0xa8bc	-0.037
205	0x30ae	0.1462
206	0x2625	0.024
207	0x35ea	0.3696
208	0x351c	0.3193
209	0x3439	0.264
210	0x3282	0.2034
211	0x3581	0.344
212	0x3693	0.411
213	0x302e	0.1306
214	0x31a9	0.1769
215	0x3273	0.2015
216	0xb09c	-0.144
217	0xae79	-0.10114
218	0x996a	-0.002644
219	0xa4ab	-0.01823
220	0x35fb	0.3738
221	0x2f4e	0.11414
222	0xac38	-0.0659
223	0x30e8	0.1533
224	0x2c7c	0.07007
225	0xb3d4	-0.2446
226	0x2256	0.012375
227	0x32fb	0.2181
228	0xb181	-0.172
229	0x3412	0.2544
230	0x3678	0.4043
231	0xb4ec	-0.3076
232	0x3578	0.3418
233	0x3612	0.3794
234	0x3156	0.1667
235	0xa540	-0.02051
236	0x3092	0.1428
237	0x294e	0.04144
238	0x290c	0.03943
239	0xaf60	-0.11523
240	0xa85c	-0.03406
241	0x2e96	0.1029
242	0xb577	-0.3416
243	0x33a9	0.2394
244	0xb77a	-0.4673
245	0x3432	0.2622
246	0x3470	0.2773
247	0xb922	-0.6416
248	0x3466	0.275
249	0x3186	0.1726
250	0xb8c0	-0.5938
251	0x37d9	0.4905
252	0x2e91	0.1026
253	0xb95c	-0.67
254	0x3566	0.3374
255	0x3154	0.1665

weight f2 [16]
0	0x3d09	1.259
1	0x3dc8	1.445
2	0x3c70	1.109
3	0x3c8c	1.137
4	0x3e40	1.5625
5	0x3d8e	1.389
6	0x3c1e	1.029
7	0x3cdb	1.214
8	0x3da6	1.412
9	0x3dc3	1.44
10	0x3d66	1.35
11	0x3d8f	1.39
12	0x3da0	1.406
13	0x3cba	1.182
14	0x3cf1	1.235
15	0x3da6	1.412

bias f2 [16]
0	0x4059	2.174
1	0x3839	0.528
2	0x3704	0.4385
3	0xb6ca	-0.4243
4	0x37e3	0.493
5	0xb7fc	-0.499
6	0xb140	-0.1641
7	0xb87f	-0.562
8	0x396f	0.679
9	0x3a56	0.792
10	0x3510	0.3164
11	0x2d6b	0.08466
12	0x3a16	0.7607
13	0x3eb5	1.677
14	0xb7f5	-0.4973
15	0x3c5a	1.088

running_mean f2 [16]
0	0x46d4	6.83
1	0x409c	2.305
2	0x3dfc	1.496
3	0x9a2f	-0.00302
4	0xb7ee	-0.4956
5	0xb4eb	-0.3074
6	0xbc4d	-1.075
7	0x3858	0.543
8	0x4309	3.518
9	0xc008	-2.016
10	0x4765	7.395
11	0xc4f1	-4.94
12	0x3bc3	0.97
13	0x41bd	2.87
14	0xbd25	-1.286
15	0xb895	-0.5728

running_var f2 [16]
0	0x5210	48.5
1	0x5008	32.25
2	0x47b4	7.703
3	0x45b8	5.72
4	0x4708	7.03
5	0x4c98	18.38
6	0x48db	9.71
7	0x44e7	4.902
8	0x5231	49.53
9	0x4caf	18.73
10	0x5403	64.2
11	0x498a	11.08
12	0x4d12	20.28
13	0x50cc	38.38
14	0x4a06	12.05
15	0x4b94	15.16

weight f2 [16, 16, 1, 1]
0	0xb8a1	-0.5786
1	0x30de	0.1521
2	0xb6a9	-0.4163
3	0xa6ae	-0.0261
4	0x3788	0.4707
5	0x398a	0.6924
6	0xaa1c	-0.04773
7	0x2e69	0.10016
8	0x379d	0.4758
9	0xae60	-0.0996
10	0xb574	-0.3408
11	0x359d	0.3508
12	0xb49a	-0.2876
13	0xb51e	-0.3198
14	0x9578	-0.001335
15	0xb567	-0.3376
16	0xaec0	-0.10547
17	0xb24f	-0.1971
18	0xad54	-0.08325
19	0xafb5	-0.1204
20	0x28e1	0.03812
21	0xaacf	-0.0532
22	0xa885	-0.0353
23	0xae93	-0.1027
24	0xaa79	-0.05057
25	0x3287	0.204
26	0xb1ff	-0.1874
27	0x2d46	0.0824
28	0x2ffa	0.12463
29	0xb006	-0.1257
30	0xb1c8	-0.1807
31	0x2ced	0.07697
32	0x3c17	1.022
33	0xb941	-0.6567
34	0xba50	-0.789
35	0xb1f4	-0.186
36	0x2cf9	0.0777
37	0xb55c	-0.335
38	0x3226	0.1921
39	0xb4e0	-0.3047
40	0x2dd7	0.09125
41	0x300c	0.1265
42	0x38db	0.607
43	0xab57	-0.05734
44	0x3628	0.3848
45	0x334c	0.228
46	0xb265	-0.1998
47	0xafe0	-0.12305
48	0x2b91	0.0591
49	0xb4f4	-0.3096
50	0xb7c6	-0.4858
51	0xb37d	-0.234
52	0x9eae	-0.006523
53	0x362e	0.3862
54	0x3502	0.313
55	0x25c3	0.0225
56	0x3498	0.287
57	0xb869	-0.5513
58	0x397e	0.6865
59	0xb4ff	-0.3123
60	0xb416	-0.2554
61	0xb6f3	-0.4343
62	0x33bf	0.2421
63	0xb5d6	-0.3647
64	0x309e	0.1443
65	0xbade	-0.8584
66	0x2d17	0.0795
67	0x3aff	0.8745
68	0xb54a	-0.3306
69	0x2f23	0.1115
70	0x39d6	0.7295
71	0xafe7	-0.1235
72	0x38b7	0.5894
73	0x20b3	0.00918
74	0xb6cf	-0.4255
75	0x3951	0.6646
76	0x2f00	0.1094
77	0x331e	0.2224
78	0x3c3e	1.061
79	0xbae9	-0.864
80	0xa9bd	-0.04483
81	0xb2f6	-0.2175
82	0x34bc	0.296
83	0xb129	-0.1613
84	0xb016	-0.1277
85	0xb214	-0.19
86	0x274d	0.02852
87	0x33a0	0.2383
88	0xb2d2	-0.2131
89	0xb0f6	-0.155
90	0xb1c3	-0.18
91	0xacab	-0.07294
92	0x2ed1	0.1065
93	0xb43c	-0.2646
94	0xaf92	-0.1183
95	0xb45c	-0.2725
96	0x2cf0	0.07715
97	0x3054	0.1353
98	0x3124	0.1606
99	0x30f1	0.1544
100	0x3ae5	0.862
101	0x31c7	0.1805
102	0xb670	-0.4023
103	0x3682	0.4067
104	0x3327	0.2235
105	0xb382	-0.2346
106	0xb5c8	-0.3613
107	0x3174	0.1704
108	0xb518	-0.3184
109	0x2a33	0.04843
110	0x2830	0.0327
111	0x343b	0.2644
112	0x3c97	1.147
113	0xb225	-0.192
114	0xbaaf	-0.8354
115	0x3488	0.2832
116	0xae56	-0.099
117	0xad18	-0.0796
118	0x280f	0.0317
119	0xb56a	-0.3384
120	0x36c6	0.4233
121	0x38ad	0.5845
122	0xbd28	-1.289
123	0x3401	0.2502
124	0xaff1	-0.1241
125	0xb803	-0.5015
126	0x32e1	0.215
127	0xb4f1	-0.3088
128	0xb808	-0.504
129	0xb6b6	-0.4194
130	0xb44e	-0.269
131	0x32a9	0.2081
132	0x3a60	0.797
133	0xb049	-0.1339
134	0x3c04	1.004
135	0xb18e	-0.1736
136	0xadb3	-0.08905
137	0xa918	-0.0398
138	0xb36f	-0.2323
139	0xb75a	-0.4595
140	0x3960	0.672
141	0x3d91	1.392
142	0xac3a	-0.06604
143	0x2a55	0.04947
144	0x3227	0.1923
145	0x34bc	0.296
146	0xb3c7	-0.243
147	0x2e6c	0.10034
148	0xb4ab	-0.2917
149	0xba8e	-0.8193
150	0xb347	-0.2274
151	0xb449	-0.2678
152	0xbce6	-1.225
153	0xac69	-0.0689
154	0x2937	0.04074
155	0x370b	0.4402
156	0x30af	0.1464
157	0x2ae1	0.05374
158	0x3bc5	0.971
159	0xaf6b	-0.1159
160	0xb198	-0.1748
161	0x39d9	0.731
162	0xb5e5	-0.3684
163	0x39a8	0.707
164	0xb753	-0.4578
165	0xba20	-0.7656
166	0x38e9	0.614
167	0xb947	-0.6597
168	0xbcfa	-1.244
169	0xbab4	-0.838
170	0x3adf	0.859
171	0xb8be	-0.593
172	0xb536	-0.3257
173	0xb64f	-0.3943
174	0xae6c	-0.10034
175	0x3144	0.1646
176	0x3dcb	1.448
177	0xb238	-0.1943
178	0x3589	0.346
179	0x2d8f	0.08685
180	0xb788	-0.4707
181	0x3b32	0.8994
182	0x31da	0.1829
183	0x38c4	0.5957
184	0xbd33	-1.3
185	0x379c	0.4756
186	0x2aa7	0.05197
187	0xb503	-0.3132
188	0xb9f8	-0.746
189	0x3d6f	1.358
190	0x3612	0.3794
191	0xaee7	-0.10785
192	0xb94a	-0.661
193	0x382d	0.522
194	0x39dc	0.7324
195	0xb261	-0.1993
196	0xa191	-0.01087
197	0x364c	0.3936
198	0xb7c5	-0.4856
199	0x38ae	0.585
200	0xb416	-0.2554
201	0x346b	0.2761
202	0xb133	-0.1625
203	0xaa23	-0.04794
204	0x38b3	0.5874
205	0xb2c4	-0.2114
206	0xb0e9	-0.1534
207	0x3520	0.3203
208	0x3dec	1.48
209	0x2e7a	0.1012
210	0x388a	0.5674
211	0x31e2	0.1838
212	0x3371	0.2325
213	0x3299	0.2062
214	0x3726	0.4468
215	0x3449	0.2678
216	0x3b29	0.895
217	0xb608	-0.377
218	0xb528	-0.3223
219	0x1e81	0.00635
220	0x9947	-0.002577
221	0xbcb6	-1.178
222	0xb0b9	-0.1476
223	0xbc7d	-1.122
224	0xb5cd	-0.3625
225	0xbacf	-0.851
226	0x329f	0.2069
227	0x3005	0.1256
228	0x1e5e	0.006218
229	0xad74	-0.0852
230	0xb5a4	-0.3525
231	0x33a0	0.2383
232	0x3ac1	0.844
233	0xba41	-0.7817
234	0x403e	2.121
235	0xb850	-0.539
236	0xbc3c	-1.059
237	0x3b9d	0.9517
238	0x3645	0.3918
239	0xb5c5	-0.3606
240	0xb8fe	-0.624
241	0xba0c	-0.756
242	0x349c	0.288
243	0x34c5	0.298
244	0x386b	0.5522
245	0x3d08	1.258
246	0x2ceb	0.07684
247	0x3501	0.3127
248	0xb8fd	-0.6235
249	0xb47b	-0.28
250	0x383a	0.5283
251	0xabbd	-0.06046
252	0xb609	-0.3772
253	0xb677	-0.404
254	0xb559	-0.3342
255	0x9c58	-0.004242

weight f2 [16]
0	0x3d92	1.393
1	0x3d2f	1.296
2	0x3ece	1.701
3	0x3d42	1.314
4	0x3e31	1.548
5	0x3d76	1.365
6	0x3d52	1.33
7	0x3ea6	1.662
8	0x3bd4	0.9785
9	0x3c30	1.047
10	0x3a13	0.7593
11	0x3c67	1.101
12	0x3d10	1.266
13	0x3c20	1.031
14	0x3ce4	1.223
15	0x395f	0.6714

bias f2 [16]
0	0x3896	0.573
1	0xa785	-0.02937
2	0xadbc	-0.0896
3	0x32bf	0.2108
4	0x3c43	1.065
5	0x2edc	0.1072
6	0x2cbb	0.0739
7	0xb35e	-0.2302
8	0x3db0	1.422
9	0x39f8	0.746
10	0x409f	2.31
11	0x41a8	2.828
12	0x3969	0.6763
13	0x3e5a	1.588
14	0x3b40	0.9062
15	0x3cb6	1.178

running_mean f2 [16]
0	0xbf1a	-1.775
1	0xb434	-0.2627
2	0x4058	2.172
3	0xbe8c	-1.637
4	0xb6a3	-0.4148
5	0xbca0	-1.156
6	0x3a7d	0.811
7	0x3ac6	0.8467
8	0x3e5e	1.592
9	0xb617	-0.3806
10	0xc0b8	-2.36
11	0x42c5	3.385
12	0xb0c2	-0.1487
13	0x3856	0.542
14	0xb849	-0.5356
15	0xc100	-2.5

running_var f2 [16]
0	0x401f	2.06
1	0x371e	0.4448
2	0x440f	4.06
3	0x44b1	4.69
4	0x44ed	4.926
5	0x3607	0.3767
6	0x3946	0.659
7	0x4179	2.736
8	0x47aa	7.664
9	0x41b6	2.855
10	0x43c2	3.879
11	0x4a29	12.32
12	0x432a	3.582
13	0x49a5	11.29
14	0x4cf1	19.77
15	0x41dc	2.93

weight f2 [16, 32, 1, 1]
0	0x3736	0.4507
1	0xaa05	-0.04703
2	0x302c	0.1304
3	0xb80e	-0.507
4	0x3b85	0.94
5	0xb734	-0.4502
6	0xa7c9	-0.03041
7	0x374d	0.4563
8	0x3c5e	1.092
9	0x2d94	0.08716
10	0xbb4e	-0.913
11	0x393a	0.6533
12	0xb852	-0.54
13	0x30f2	0.1545
14	0x2d39	0.0816
15	0xb5d5	-0.3645
16	0xb0e5	-0.153
17	0x2cdb	0.07587
18	0x357d	0.343
19	0x31b7	0.1786
20	0xb3ed	-0.2477
21	0x39f1	0.7427
22	0xb4ff	-0.3123
23	0xb5e4	-0.3682
24	0xb82f	-0.523
25	0x3435	0.263
26	0xb9a1	-0.7036
27	0x2c61	0.0684
28	0xb3ec	-0.2476
29	0xb881	-0.563
30	0xb7c1	-0.4846
31	0x38a0	0.578
32	0xa27e	-0.01268
33	0xb067	-0.1376
34	0xbbde	-0.9834
35	0xb16b	-0.1693
36	0xb799	-0.4749
37	0x325f	0.1991
38	0x362f	0.3865
39	0xa895	-0.0358
40	0xb814	-0.51
41	0xabc9	-0.06082
42	0xa052	-0.00844
43	0x3563	0.3367
44	0xa853	-0.03378
45	0x301e	0.1287
46	0xb45b	-0.2722
47	0x34cb	0.2996
48	0x38d0	0.6016
49	0xb509	-0.3147
50	0x3637	0.3884
51	0x3902	0.626
52	0xb478	-0.2793
53	0xa406	-0.01572
54	0x2ab2	0.0523
55	0x36b5	0.4192
56	0xae66	-0.1
57	0xb329	-0.2238
58	0xb3d8	-0.2451
59	0x3a55	0.7915
60	0x3215	0.1901
61	0x3904	0.627
62	0x30c9	0.1495
63	0xb597	-0.3494
64	0xaa6b	-0.05014
65	0x35c2	0.3599
66	0x2b96	0.05927
67	0xb210	-0.1895
68	0xb877	-0.558
69	0x2c85	0.0706
70	0xad9b	-0.0876
71	0xb6c2	-0.4224
72	0xb216	-0.1902
73	0x33e0	0.2461
74	0xb378	-0.2334
75	0xb428	-0.2598
76	0xae54	-0.0989
77	0xb044	-0.1333
78	0xafc5	-0.1214
79	0xaa12	-0.04742
80	0x2d76	0.0853
81	0x3710	0.4414
82	0xb58e	-0.3472
83	0xb510	-0.3164
84	0x3927	0.644
85	0xb86d	-0.553
86	0xb9f1	-0.7427
87	0xb706	-0.439
88	0xb9d1	-0.727
89	0x3409	0.2522
90	0x3414	0.255
91	0x3afa	0.872
92	0xb55e	-0.3354
93	0x36a7	0.4158
94	0xa19b	-0.01095
95	0xb2b1	-0.2091
96	0x2d30	0.08105
97	0x1cd9	0.004734
98	0x34a3	0.2898
99	0x3823	0.517
100	0x3818	0.5117
101	0xb334	-0.2251
102	0x2121	0.01002
103	0x3ab8	0.84
104	0x3127	0.161
105	0xaf70	-0.1162
106	0xb831	-0.524
107	0x2e68	0.1001
108	0xacc7	-0.07465
109	0x3415	0.2551
110	0x2b73	0.0582
111	0x355e	0.3354
112	0x2e5a	0.09924
113	0x2975	0.04263
114	0x33aa	0.2395
115	0xacc1	-0.0743
116	0xb87e	-0.5615
117	0x336a	0.2317
118	0x33a0	0.2383
119	0x3c5a	1.088
120	0xb0fa	-0.1555
121	0xb13f	-0.164
122	0xb2b0	-0.209
123	0xb612	-0.3794
124	0x24e0	0.01904
125	0x3bd4	0.9785
126	0x3354	0.229
127	0x3ad2	0.8525
128	0xb2e5	-0.2155
129	0xb05a	-0.136
130	0x33e7	0.247
131	0x32f6	0.2175
132	0xb617	-0.3806
133	0x2ba5	0.05972
134	0x28fe	0.039
135	0x2ce5	0.0765
136	0xaf86	-0.11755
137	0x310a	0.1575
138	0x356c	0.3389
139	0x3912	0.634
140	0x2fa5	0.11945
141	0x35b3	0.3562
142	0x2dcc	0.0906
143	0x9ad1	-0.003328
144	0xb572	-0.3403
145	0x3160	0.168
146	0xb326	-0.2234
147	0x3728	0.4473
148	0xb824	-0.5176
149	0x33d0	0.2441
150	0x3005	0.1256
151	0xaa99	-0.05154
152	0xba70	-0.8047
153	0xb846	-0.534
154	0x3a77	0.808
155	0xb7ad	-0.4797
156	0xb5f5	-0.3723
157	0xb70a	-0.44
158	0x3996	0.698
159	0xbaee	-0.866
160	0xba6e	-0.8037
161	0xa773	-0.0291
162	0x3dd5	1.458
163	0xb1af	-0.1776
164	0xb8dd	-0.608
165	0xb060	-0.1367
166	0xb411	-0.2542
167	0x2f8c	0.1179
168	0xadee	-0.09265
169	0xad01	-0.0782
170	0xb351	-0.2286
171	0x3637	0.3884
172	0xb420	-0.2578
173	0xb12c	-0.1616
174	0x3578	0.3418
175	0xb29f	-0.2069
176	0x38fd	0.6235
177	0xb572	-0.3403
178	0xb2d4	-0.2134
179	0x3773	0.4656
180	0xb0a6	-0.1453
181	0xb8c6	-0.5967
182	0xa29a	-0.01289
183	0x38ca	0.5986
184	0x3a0a	0.755
185	0xb16a	-0.1692
186	0x34bf	0.2966
187	0x2f1b	0.111
188	0xad31	-0.0811
189	0x376b	0.4636
190	0xb9f4	-0.744
191	0xb939	-0.653
192	0xb541	-0.3284
193	0xb37c	-0.2339
194	0x2cfd	0.07794
195	0xb8a5	-0.5806
196	0x37d4	0.4893
197	0x2f98	0.11865
198	0xa384	-0.01468
199	0x3c85	1.13
200	0xad0e	-0.079
201	0x2e2e	0.09656
202	0x34bc	0.296
203	0xb396	-0.237
204	0xb6d7	-0.4275
205	0xb3ba	-0.2415
206	0xb17f	-0.1718
207	0x34b1	0.2932
208	0x9c0a	-0.003944
209	0xb26f	-0.201
210	0x3e93	1.644
211	0x3635	0.388
212	0x336c	0.2319
213	0xb025	-0.1295
214	0xb4b7	-0.2947
215	0xb2fb	-0.2181
216	0xb2a5	-0.2076
217	0xb3bf	-0.2421
218	0x36cb	0.4246
219	0x2cf6	0.0775
220	0x30cd	0.15
221	0xba77	-0.808
222	0xadf1	-0.09283
223	0x394b	0.6616
224	0x30d8	0.1514
225	0x2064	0.008575
226	0x288b	0.0355
227	0xb4fe	-0.312
228	0xb4ce	-0.3003
229	0xb190	-0.1738
230	0x3991	0.696
231	0xb742	-0.4536
232	0xb6ca	-0.4243
233	0x1d9d	0.00548
234	0xb28b	-0.2045
235	0x36ce	0.4253
236	0x32aa	0.2083
237	0x3976	0.6826
238	0x36c0	0.4219
239	0xb3d1	-0.2443
240	0xafa3	-0.1193
241	0xb52c	-0.3232
242	0xb694	-0.4111
243	0x3743	0.4539
244	0xb32e	-0.2244
245	0x3904	0.627
246	0x3333	0.225
247	0x313b	0.1635
248	0xba30	-0.7734
249	0xb817	-0.511
250	0x312a	0.1614
251	0xac26	-0.0648
252	0x3dd5	1.458
253	0x30a0	0.1445
254	0xb657	-0.3962
255	0x3ba0	0.953

weight f2 [16]
0	0x3cb8	1.18
1	0x3ba5	0.9556
2	0x3e7d	1.622
3	0x3c3f	1.062
4	0x3d78	1.367
5	0x3d0b	1.261
6	0x3c1d	1.028
7	0x3c6a	1.104
8	0x3bbe	0.968
9	0x3c13	1.019
10	0x3f52	1.83
11	0x3c0d	1.013
12	0x3d0c	1.262
13	0x3e62	1.596
14	0x3ca2	1.158
15	0x3cd0	1.203

bias f2 [16]
0	0x3439	0.264
1	0xad88	-0.0864
2	0x3917	0.636
3	0x393c	0.6543
4	0x30f2	0.1545
5	0x2b7b	0.05844
6	0x35dc	0.3662
7	0x3dd6	1.459
8	0x36ac	0.417
9	0x3080	0.1406
10	0x3932	0.6494
11	0x3e65	1.599
12	0xb3b9	-0.2413
13	0x3524	0.3213
14	0x38ea	0.6143
15	0x2dad	0.0887

running_mean f2 [16]
0	0xbfb4	-1.926
1	0x4672	6.445
2	0xc246	-3.137
3	0x452a	5.164
4	0xbc6d	-1.106
5	0x3c41	1.063
6	0x44aa	4.664
7	0x4463	4.387
8	0x4074	2.227
9	0x467b	6.48
10	0xc39f	-3.81
11	0x492f	10.37
12	0x4198	2.797
13	0x3d6e	1.357
14	0xc7d9	-7.848
15	0x4062	2.191

running_var f2 [16]
0	0x496e	10.86
1	0x494c	10.59
2	0x49e1	11.76
3	0x5040	34.0
4	0x4c9a	18.4
5	0x4d45	21.08
6	0x4860	8.75
7	0x4fa5	30.58
8	0x49bd	11.48
9	0x4f06	28.1
10	0x4c3c	16.94
11	0x4dcf	23.23
12	0x50a3	37.1
13	0x4d49	21.14
14	0x4cb5	18.83
15	0x4821	8.26

weight f2 [8, 8, 3, 3]
0	0xaca1	-0.0723
1	0x33ee	0.2478
2	0xb428	-0.2598
3	0x3240	0.1953
4	0xb437	-0.2634
5	0xb920	-0.6406
6	0x348e	0.2847
7	0x2ca0	0.07227
8	0xab85	-0.05875
9	0x31ed	0.1852
10	0x2d99	0.08746
11	0xb247	-0.1962
12	0x3184	0.1724
13	0xb286	-0.2039
14	0xb052	-0.135
15	0x2dfd	0.09357
16	0xb458	-0.2715
17	0x34fe	0.312
18	0xaaa9	-0.05203
19	0xacb2	-0.07336
20	0xb10e	-0.158
21	0x3144	0.1646
22	0x3a09	0.7544
23	0xb8fb	-0.6226
24	0x2908	0.0393
25	0x364c	0.3936
26	0xb95e	-0.671
27	0xb6c7	-0.4236
28	0xb7a0	-0.4766
29	0xb69e	-0.4136
30	0xb5f7	-0.3728
31	0xa4ed	-0.01924
32	0xadf2	-0.0929
33	0xb8ee	-0.616
34	0x38d0	0.6016
35	0x2f22	0.11145
36	0xb54a	-0.3306
37	0x34f3	0.3093
38	0x3399	0.2374
39	0xa464	-0.01715
40	0xb170	-0.1699
41	0xb69f	-0.4138
42	0x320f	0.1893
43	0x2e76	0.10095
44	0xace4	-0.0764
45	0xa67f	-0.02538
46	0xba92	-0.8213
47	0xb4ae	-0.2925
48	0xb6a6	-0.4155
49	0x32c2	0.2112
50	0x3d13	1.269
51	0xb879	-0.559
52	0xa72f	-0.02806
53	0xb82f	-0.523
54	0xb43e	-0.2651
55	0xb495	-0.2864
56	0x2cb7	0.07367
57	0x31f2	0.1858
58	0x38a9	0.5825
59	0x3362	0.2307
60	0xb963	-0.6733
61	0x344f	0.2693
62	0x35c0	0.3594
63	0xb47b	-0.28
64	0xb55a	-0.3345
65	0xb22a	-0.1926
66	0x320a	0.1887
67	0xb67d	-0.4055
68	0xaf85	-0.1175
69	0x30b1	0.1466
70	0xb51e	-0.3198
71	0xb46c	-0.2764
72	0x2c92	0.0714
73	0xaae0	-0.0537
74	0x39fc	0.748
75	0x3108	0.1572
76	0x30a5	0.1451
77	0x3905	0.6274
78	0x2e9a	0.10315
79	0x3572	0.3403
80	0xae12	-0.09485
81	0x29d7	0.04562
82	0x36fa	0.436
83	0xacac	-0.073
84	0x24e1	0.01906
85	0x342c	0.2607
86	0xaef3	-0.1086
87	0x2ce6	0.07654
88	0x2c09	0.06305
89	0x30b6	0.1472
90	0xb2f2	-0.217
91	0xaff0	-0.124
92	0x3467	0.2751
93	0xafaf	-0.12006
94	0x315e	0.1677
95	0x2cba	0.07385
96	0x34e2	0.3052
97	0xa074	-0.0087
98	0x371b	0.444
99	0x3141	0.1642
100	0xa92c	-0.0404
101	0x38d5	0.604
102	0xb2bc	-0.2104
103	0xb494	-0.2861
104	0x39a4	0.705
105	0xb56d	-0.339
106	0xb145	-0.1647
107	0xba49	-0.7856
108	0xb49d	-0.2883
109	0xafb7	-0.12054
110	0xb54a	-0.3306
111	0xb37a	-0.2336
112	0xb03c	-0.1323
113	0xb349	-0.2277
114	0xb40d	-0.2532
115	0xa939	-0.0408
116	0x3610	0.379
117	0xb90e	-0.632
118	0x249e	0.01804
119	0x3512	0.317
120	0xb93e	-0.6553
121	0xaf96	-0.1185
122	0x2d11	0.07916
123	0x36dc	0.4287
124	0xb42d	-0.261
125	0x2cf9	0.0777
126	0x2e91	0.1026
127	0xba84	-0.8145
128	0x3c7c	1.121
129	0x2aa0	0.05176
130	0xb488	-0.2832
131	0x3a45	0.7837
132	0x3970	0.6797
133	0x2ab3	0.05234
134	0x3c54	1.082
135	0x2961	0.04202
136	0x3026	0.1296
137	0x38c0	0.5938
138	0xb1c2	-0.1799
139	0xb186	-0.1726
140	0xb034	-0.1313
141	0xb27a	-0.2024
142	0x246b	0.01726
143	0x2eab	0.1042
144	0x2de8	0.0923
145	0x35ac	0.3545
146	0xb506	-0.314
147	0xaf18	-0.11084
148	0xb47a	-0.2798
149	0xab22	-0.05573
150	0x2b90	0.05908
151	0xb49c	-0.288
152	0x3455	0.2708
153	0x320a	0.1887
154	0x372f	0.449
155	0x217d	0.01072
156	0x312f	0.162
157	0x2dfc	0.0935
158	0x38c7	0.597
159	0xb024	-0.1294
160	0x9d76	-0.005333
161	0x3041	0.1329
162	0xb308	-0.2197
163	0x325e	0.199
164	0xaa58	-0.04956
165	0xb902	-0.626
166	0x3576	0.3413
167	0x30fc	0.1558
168	0xb664	-0.3994
169	0x2f46	0.11365
170	0x3346	0.2273
171	0x38a2	0.579
172	0xb697	-0.4119
173	0xb1bc	-0.1792
174	0xb44c	-0.2686
175	0xbbae	-0.96
176	0x3c1b	1.026
177	0x2f68	0.1157
178	0xb89e	-0.577
179	0x318d	0.1735
180	0x3500	0.3125
181	0x2871	0.0347
182	0xb04a	-0.134
183	0x3aa3	0.8296
184	0xb3d5	-0.2448
185	0xb7ee	-0.4956
186	0x31b5	0.1783
187	0xb39b	-0.2377
188	0xb394	-0.2368
189	0xb68c	-0.4092
190	0xa379	-0.014595
191	0x2c16	0.06384
192	0xb840	-0.5312
193	0x3a12	0.759
194	0x39e2	0.7354
195	0xad65	-0.0843
196	0x3809	0.5044
197	0xb316	-0.2214
198	0xb840	-0.5312
199	0x29e7	0.0461
200	0x3594	0.3486
201	0xbc84	-1.129
202	0x3a9f	0.8276
203	0xaa16	-0.04755
204	0xb865	-0.5493
205	0x38d6	0.6045
206	0xb4b8	-0.295
207	0xb43c	-0.2646
208	0xb590	-0.3477
209	0x36da	0.4282
210	0x2ec5	0.1058
211	0xa5ad	-0.02217
212	0xb94c	-0.662
213	0xb32d	-0.2242
214	0xaf99	-0.1187
215	0x30e8	0.1533
216	0xae57	-0.09906
217	0x3047	0.1337
218	0xad10	-0.0791
219	0x31d5	0.1823
220	0x3af1	0.8677
221	0xb632	-0.3872
222	0x3431	0.262
223	0xa318	-0.013855
224	0xbb91	-0.946
225	0x303b	0.1322
226	0x3027	0.1298
227	0x3133	0.1625
228	0xb563	-0.3367
229	0x328b	0.2045
230	0x35ab	0.3542
231	0xb3d2	-0.2444
232	0x3444	0.2666
233	0xadab	-0.08856
234	0xac06	-0.06287
235	0x2de3	0.092
236	0xaefe	-0.10925
237	0xae21	-0.09576
238	0x3690	0.4102
239	0x3543	0.3289
240	0x2c2f	0.06537
241	0x21f7	0.01165
242	0x2b63	0.0577
243	0xb287	-0.204
244	0xb806	-0.503
245	0xb124	-0.1606
246	0x329c	0.2065
247	0x385e	0.546
248	0xb641	-0.3909
249	0x3788	0.4707
250	0x3c87	1.132
251	0xb526	-0.3218
252	0xa2f9	-0.01362
253	0x311e	0.1599
254	0x2e6f	0.1005
255	0x2e96	0.1029

weight f2 [8]
0	0x3ccd	1.2
1	0x3c56	1.084
2	0x3e88	1.633
3	0x3c43	1.065
4	0x3d9e	1.404
5	0x3d4f	1.327
6	0x3d98	1.398
7	0x3f6c	1.855

bias f2 [8]
0	0x3e06	1.506
1	0x3678	0.4043
2	0x31af	0.1776
3	0x3aba	0.841
4	0x39db	0.732
5	0x2dd8	0.0913
6	0x34fe	0.312
7	0x376d	0.464

running_mean f2 [8]
0	0xc80e	-8.11
1	0x441e	4.117
2	0xbe02	-1.502
3	0x4171	2.72
4	0xbeaa	-1.666
5	0xbd3a	-1.307
6	0xc4dc	-4.86
7	0xc249	-3.143

running_var f2 [8]
0	0x4915	10.164
1	0x49c5	11.54
2	0x4804	8.03
3	0x4965	10.79
4	0x48a7	9.305
5	0x49b7	11.43
6	0x4796	7.586
7	0x49c1	11.51

weight f2 [8, 8, 3, 3]
0	0x2257	0.01238
1	0xb26b	-0.2006
2	0xac6d	-0.06915
3	0x3678	0.4043
4	0x30f8	0.1553
5	0xb56a	-0.3384
6	0x34ad	0.2922
7	0xafee	-0.1239
8	0xa0b3	-0.00918
9	0xacb6	-0.0736
10	0xb59f	-0.3513
11	0xb524	-0.3213
12	0xae83	-0.10175
13	0xb013	-0.1273
14	0x38b9	0.5903
15	0x211c	0.00998
16	0x3a52	0.79
17	0x39d9	0.731
18	0xb4d4	-0.3018
19	0x2e84	0.1018
20	0xb29b	-0.2064
21	0x35ab	0.3542
22	0x3879	0.559
23	0xb3a2	-0.2385
24	0xb6f6	-0.435
25	0xb417	-0.2556
26	0xb809	-0.5044
27	0xb7d6	-0.4897
28	0xb63b	-0.3894
29	0x34e9	0.307
30	0xb49e	-0.2886
31	0xb4ad	-0.2922
32	0x3d1d	1.278
33	0x257f	0.02147
34	0xb53a	-0.3267
35	0x32f0	0.2168
36	0x3479	0.2795
37	0xadb0	-0.08887
38	0x33cf	0.244
39	0xb4ad	-0.2922
40	0xb39b	-0.2377
41	0x3b23	0.892
42	0xb1f0	-0.1855
43	0xb809	-0.5044
44	0xb5d3	-0.364
45	0xa1d0	-0.01135
46	0xb60e	-0.3784
47	0xb584	-0.3447
48	0x39a7	0.7065
49	0x2731	0.02809
50	0x3815	0.5103
51	0x24a4	0.01813
52	0x3147	0.1649
53	0x3a25	0.768
54	0x2dd4	0.09106
55	0xb070	-0.1387
56	0xb40b	-0.2527
57	0xb5e6	-0.3687
58	0xb2b4	-0.2095
59	0x28ef	0.03854
60	0x3199	0.1749
61	0x25f3	0.02324
62	0x32dc	0.2144
63	0xaf9f	-0.1191
64	0x3114	0.1587
65	0xb057	-0.1356
66	0x314b	0.1654
67	0xb45f	-0.2732
68	0xb8c9	-0.598
69	0x3633	0.3875
70	0x3581	0.344
71	0xb4cb	-0.2996
72	0xa9d0	-0.0454
73	0xb342	-0.2268
74	0xb10f	-0.1581
75	0xad8b	-0.0866
76	0xaddd	-0.0916
77	0xb55e	-0.3354
78	0x30ab	0.1459
79	0xac55	-0.0677
80	0x2fda	0.1227
81	0x2ecc	0.1062
82	0xb6af	-0.4177
83	0xb01c	-0.1284
84	0x2fae	0.12
85	0xb6f3	-0.4343
86	0xb081	-0.1407
87	0x3155	0.1666
88	0xaeda	-0.10706
89	0x3525	0.3215
90	0x2655	0.02473
91	0xb431	-0.262
92	0x35c7	0.361
93	0xb035	-0.1315
94	0x2952	0.04156
95	0x364a	0.393
96	0xb039	-0.132
97	0xb453	-0.2703
98	0x387b	0.56
99	0xbac2	-0.8447
100	0x34c3	0.2976
101	0xa358	-0.01434
102	0xb749	-0.4553
103	0xb24e	-0.197
104	0x2d31	0.0811
105	0xb508	-0.3145
106	0x3901	0.6255
107	0x34d0	0.3008
108	0xb5cb	-0.362
109	0x28c0	0.0371
110	0x3168	0.169
111	0x2854	0.0338
112	0x362d	0.386
113	0x30bd	0.1481
114	0xae38	-0.09717
115	0x35ac	0.3545
116	0xb809	-0.5044
117	0x27f8	0.03113
118	0xb11a	-0.1594
119	0x35c7	0.361
120	0xb221	-0.1915
121	0xad8b	-0.0866
122	0x32b2	0.2092
123	0xb350	-0.2285
124	0xb4cb	-0.2996
125	0x3293	0.2054
126	0x3357	0.2294
127	0xb1e5	-0.1842
128	0xa0ef	-0.009636
129	0x3008	0.126
130	0xb9a5	-0.7056
131	0x33c6	0.2429
132	0x3579	0.342
133	0xb225	-0.192
134	0x37be	0.484
135	0x3327	0.2235
136	0xb2f3	-0.2172
137	0x3929	0.645
138	0x3935	0.651
139	0xa57d	-0.02144
140	0x3905	0.6274
141	0xb4af	-0.2927
142	0xb665	-0.3997
143	0xb790	-0.4727
144	0x3622	0.3833
145	0xb055	-0.1354
146	0x38fc	0.623
147	0x3a02	0.751
148	0xac6d	-0.06915
149	0xb2b1	-0.2091
150	0x3465	0.2747
151	0xb958	-0.668
152	0xb4d3	-0.3015
153	0x2ef7	0.1088
154	0x2fb9	0.12067
155	0xb1a3	-0.1761
156	0xbadc	-0.8574
157	0x361b	0.3816
158	0x3802	0.501
159	0xbb4b	-0.9116
160	0x33b7	0.2411
161	0x39e0	0.7344
162	0xacb5	-0.07355
163	0xac60	-0.06836
164	0x2c6c	0.0691
165	0x3468	0.2754
166	0x3a77	0.808
167	0x37a2	0.477
168	0xb759	-0.4592
169	0x302c	0.1304
170	0x2c6c	0.0691
171	0xba36	-0.7764
172	0xb898	-0.574
173	0x3478	0.2793
174	0xba57	-0.7925
175	0xb91f	-0.64
176	0x3923	0.642
177	0xb460	-0.2734
178	0xb3cb	-0.2435
179	0x34ba	0.2954
180	0x29dc	0.04578
181	0xb310	-0.2207
182	0x30f6	0.155
183	0x339c	0.2378
184	0xb94d	-0.6626
185	0x382c	0.5215
186	0x399e	0.702
187	0xb5fd	-0.3743
188	0xb663	-0.3992
189	0xb835	-0.526
190	0x3057	0.1356
191	0x2b1e	0.0556
192	0x2bee	0.06195
193	0x393c	0.6543
194	0x2c65	0.06866
195	0xa97d	-0.04288
196	0x3b0d	0.8813
197	0x32fd	0.2184
198	0xb53b	-0.327
199	0xb4e9	-0.307
200	0xb25a	-0.1985
201	0x392a	0.6455
202	0x2aed	0.0541
203	0xb425	-0.259
204	0x3623	0.3835
205	0x3191	0.174
206	0xb47a	-0.2798
207	0xa68d	-0.02559
208	0x923f	-0.0007625
209	0xac41	-0.06647
210	0x3294	0.2056
211	0x2ebd	0.1053
212	0xb47d	-0.2805
213	0x9e46	-0.006126
214	0xaa42	-0.0489
215	0xb517	-0.318
216	0xa06e	-0.00865
217	0x3ae5	0.862
218	0x34ef	0.3083
219	0xb0a9	-0.1456
220	0xb31c	-0.2222
221	0xb529	-0.3225
222	0x2c1b	0.06415
223	0xb770	-0.4648
224	0xa1f6	-0.01164
225	0xbbc3	-0.97
226	0x3193	0.1742
227	0xabd3	-0.06113
228	0xb66e	-0.4019
229	0x33e7	0.247
230	0x3105	0.1569
231	0xb934	-0.6504
232	0x34bc	0.296
233	0xb3fa	-0.2493
234	0xb529	-0.3225
235	0x2549	0.02065
236	0x3809	0.5044
237	0x189a	0.002247
238	0xb00a	-0.1262
239	0x2e38	0.09717
240	0x32d2	0.2131
241	0xb0dd	-0.152
242	0x25d8	0.02283
243	0xb151	-0.1661
244	0xaeee	-0.1083
245	0xaaea	-0.05402
246	0xb878	-0.5586
247	0xb4c6	-0.2983
248	0x32d2	0.2131
249	0x3422	0.2583
250	0x2a74	0.0504
251	0x3391	0.2365
252	0x2c1f	0.0644
253	0x34d4	0.3018
254	0xb4ee	-0.308
255	0xb0b9	-0.1476

weight f2 [8]
0	0x3c08	1.008
1	0x3c64	1.098
2	0x3dad	1.419
3	0x3a5e	0.796
4	0x3d32	1.299
5	0x3c40	1.0625
6	0x3bcd	0.975
7	0x3d38	1.305

bias f2 [8]
0	0x38d8	0.6055
1	0x363a	0.3892
2	0x34cc	0.2998
3	0x3677	0.404
4	0x39d7	0.73
5	0x351d	0.3196
6	0x3cc3	1.19
7	0x39e9	0.739

running_mean f2 [8]
0	0x9aef	-0.003386
1	0xb86b	-0.5522
2	0xac68	-0.06885
3	0xc01a	-2.05
4	0xbe44	-1.566
5	0x2fa9	0.1197
6	0xbb72	-0.9307
7	0xc0bf	-2.373

running_var f2 [8]
0	0x4a3b	12.46
1	0x4691	6.566
2	0x4b47	14.555
3	0x4620	6.125
4	0x47b0	7.688
5	0x4701	7.004
6	0x4c5f	17.48
7	0x4bd7	15.68
